data/parameters.npz (npz, 746 bytes, 2 tensors)

RdMat (column-major) f8 [22, 2]
-0.21184681195017555 -0.21357949413803312 -0.2122545490411662 -0.21372634654140737 -0.21257232408991916 -0.21384146755527178 -0.21279987908753398 -0.21392573213128
-0.21294255971510473 -0.21397866733689827 -0.21299633063531492 -0.21399952755285692 -0.21296338523267364 -0.21398833019376004 -0.21284130084823058 -0.21394472085922767
-0.21263498669251532 -0.21386883981093008 -0.21234254240312275 -0.21375969815870643 -0.2119636569677871 -0.2136191126033036 0.2096263681561874 -0.2135380164898486
0.21243381941594805 -0.2130707058328062 0.21457360901773112 -0.2126860336187466 0.21609111830817868 -0.21238154185956054 0.2169522113243391 -0.2121730067662692
0.2171400154171767 -0.21206139602046675 0.21665933752816993 -0.21204487117138646 0.21551274509403406 -0.21213022106421606 0.21371610766816185 -0.2123252573650938
0.2112633949608251 -0.21263520941301695 0.20811951505603632 -0.21302948033295235
00000000: 313f 8bdc cb1d cbbf 48a4 35a7 9256 cbbf
00000010: 868e 4735 282b cbbf 1e2e 588a 625b cbbf
00000020: 021e 00e6 9135 cbbf 50da d63e 285f cbbf
00000030: 0509 a3c4 063d cbbf 096b a31b eb61 cbbf
00000040: 4a92 f3a8 b341 cbbf 5377 2029 a763 cbbf
00000050: 3a93 1fb9 7643 cbbf e577 1926 5664 cbbf
00000060: a3ee 685b 6242 cbbf 6334 f437 f863 cbbf
00000070: b7cc 303d 623e cbbf 7401 9f65 8a62 cbbf
00000080: 3335 ea8c 9f37 cbbf 488a 4fdc 0d60 cbbf
00000090: 3be0 9559 0a2e cbbf 60b1 6550 7a5c cbbf
000000a0: ad00 4f07 a021 cbbf f142 37ff de57 cbbf
000000b0: 2017 ce6d 09d5 ca3f e867 a3b6 3655 cbbf
000000c0: d759 7a09 0831 cb3f 15ce a4a0 e645 cbbf
000000d0: a36d a8e4 2577 cb3f 40af 5ac3 4b39 cbbf
000000e0: 1a7b 0baf dfa8 cb3f 82ca 4780 512f cbbf
000000f0: d569 370e 17c5 cb3f beda 932e 7c28 cbbf
00000100: a652 6f78 3ecb cb3f 0a75 53ec d324 cbbf
00000110: e53b 8740 7ebb cb3f 079a 7b4d 4924 cbbf
00000120: 6468 06f0 eb95 cb3f 4366 fb44 1527 cbbf
00000130: f415 88a6 0c5b cb3f e9b9 3f5a 792d cbbf
00000140: 2f6e 19ce ad0a cb3f 3419 346b a137 cbbf
00000150: 6c9b 6907 a9a3 ca3f 7594 8ecd 8c44 cbbf

coeff f8 [3]
0.5615461743262751 0.000936166689808008 -0.00125839023457611
00000000: c89b bdae 2ff8 e13f 2080 7da8 22ad 4e3f
00000010: 8f8e cc39 129e 54bf
